FlaskServer/Trained_Models/cs/BE/A/model.npz (npz, 4357 bytes, 1 tensors)

arr_0 f8 [7, 128]
0	0xbfca4f7ce0000000	-0.20555077493190765
1	0x3fbdd6e9c0000000	0.11656056344509125
2	0x3fad9735e0000000	0.05779426917433739
3	0xbf94bcc5a0000000	-0.020251357927918434
4	0xbfade60a20000000	-0.058395687490701675
5	0xbf4fe79e00000000	-0.0009736558422446251
6	0x3fb23400c0000000	0.07110600173473358
7	0xbfa9574440000000	-0.04949391633272171
8	0x3fc397d520000000	0.1530710607767105
9	0xbfb618c900000000	-0.08631569147109985
10	0x3fc11105a0000000	0.13333196938037872
11	0xbfa1df4d00000000	-0.0349067747592926
12	0xbfc92c82a0000000	-0.19667084515094757
13	0xbfb8048aa0000000	-0.09381929785013199
14	0x3f557e9a00000000	0.0013119224458932877
15	0x3fb8ecf140000000	0.09736545383930206
16	0xbfc0a1ffe0000000	-0.1299438327550888
17	0xbfc82a7440000000	-0.18879559636116028
18	0xbfacdf6ae0000000	-0.056392040103673935
19	0xbfa53275a0000000	-0.04140060022473335
20	0x3fb4ebcfe0000000	0.08172320574522018
21	0x3fa59ffa00000000	0.042236149311065674
22	0xbfb03ffde0000000	-0.06347643584012985
23	0x3f888ab6a0000000	0.011983324773609638
24	0xbfc7232a20000000	-0.18076063692569733
25	0xbfd9e5f9e0000000	-0.404661625623703
26	0xbfb24cb1a0000000	-0.07148275524377823
27	0xbfc07aea40000000	-0.12875106930732727
28	0xbfa22f4ae0000000	-0.03551706299185753
29	0xbfc013ca80000000	-0.12560397386550903
30	0xbf735e8040000000	-0.004728795029222965
31	0xbfad4f2900000000	-0.057244569063186646
32	0xbfc945bf80000000	-0.19744104146957397
33	0x3f7269cb00000000	0.004495423287153244
34	0xbfa0fe9800000000	-0.03319239616394043
35	0x3fbf713c20000000	0.12282157689332962
36	0x3f85fabc60000000	0.01073214691132307
37	0xbf906d3ce0000000	-0.0160417091101408
38	0x3fc4cea480000000	0.1625562310218811
39	0x3fa9023d00000000	0.04884520173072815
40	0xbfc4735f80000000	-0.1597709059715271
41	0x3fa307bba0000000	0.03716837242245674
42	0x3fa5548320000000	0.04166040197014809
43	0x3fd653e760000000	0.3488710820674896
44	0x3fc4c7c080000000	0.16234594583511353
45	0x3fa7791700000000	0.04584571719169617
46	0xbf8b83e980000000	-0.01343519613146782
47	0xbf6d3d2000000000	-0.003569185733795166
48	0x3fc674dba0000000	0.1754412204027176
49	0xbfd1546040000000	-0.2707749009132385
50	0x3fc43f2bc0000000	0.15817782282829285
51	0x3fb472eb40000000	0.07987852394580841
52	0x3fbb167440000000	0.10581137239933014
53	0x3fa563a3e0000000	0.041775818914175034
54	0x3fbaf82d60000000	0.10534938424825668
55	0xbfc3a9c300000000	-0.1536182165145874
56	0xbfa9a3a340000000	-0.05007658153772354
57	0x3f5781c200000000	0.001434745267033577
58	0xbfd0078260000000	-0.25045832991600037
59	0x3fae1b9500000000	0.05880418419837952
60	0x3fa4143b40000000	0.03921685367822647
61	0x3f81d74cc0000000	0.008711433038115501
62	0xbfb5e815c0000000	-0.08557258546352386
63	0xbfa5f22460000000	-0.04286302253603935
64	0x3fc87d0a40000000	0.1913159191608429
65	0x3fc6d7a5c0000000	0.17845603823661804
66	0xbfb72b0960000000	-0.09050043672323227
67	0xbfb4581e40000000	-0.07946957647800446
68	0x3fc67d9720000000	0.17570771276950836
69	0xbfcb95b340000000	-0.21550598740577698
70	0x3fa79875e0000000	0.04608505591750145
71	0xbfa0c5e3a0000000	-0.03275977447628975
72	0xbfb99a6260000000	-0.10001196712255478
73	0xbfc1670280000000	-0.13595610857009888
74	0xbfcf499800000000	-0.24443340301513672
75	0x3fbae6cc60000000	0.10508420318365097
76	0x3fdb7a0340000000	0.4293220639228821
77	0x3fc0843520000000	0.12903465330600739
78	0xbfc36c95e0000000	-0.15175126492977142
79	0xbf9280dd00000000	-0.01806969940662384
80	0xbfb52a6120000000	-0.08267790824174881
81	0x3f9c2d1760000000	0.02751575969159603
82	0x3fb7ce7600000000	0.0929940938949585
83	0x3f96b875a0000000	0.022188032045960426
84	0xbfb54095c0000000	-0.08301673829555511
85	0x3fb1994ec0000000	0.06874553859233856
86	0xbfb60ab9e0000000	-0.08610116690397263
87	0x3fc1a32c20000000	0.13779212534427643
88	0x3fc69ace40000000	0.17659929394721985
89	0x3f92945340000000	0.018143940716981888
90	0xbfac911a60000000	-0.055794548243284225
91	0x3fc76abba0000000	0.18294472992420197
92	0x3f822f9c40000000	0.008879872038960457
93	0xbf7bcd5840000000	-0.0067876288667321205
94	0x3fab832bc0000000	0.05373512953519821
95	0xbf938e2a60000000	-0.01909700594842434
96	0xbfb22dd280000000	-0.07101169228553772
97	0xbf9a0fe680000000	-0.025451280176639557
98	0xbfb76ef700000000	-0.09153693914413452
99	0x3fa07de380000000	0.03221045434474945
100	0x3fa3374500000000	0.0375310480594635
101	0xbfbbfe2a40000000	-0.10934700071811676
102	0x3f85e4dea0000000	0.01069044042378664
103	0x3fbd9dbea0000000	0.11568824201822281
104	0xbfc987edc0000000	-0.1994607150554657
105	0x3fc2e73be0000000	0.14768169820308685
106	0x3fa1d2b5a0000000	0.034810710698366165
107	0xbf92ecce00000000	-0.018481463193893433
108	0xbfa28e7f00000000	-0.03624340891838074
109	0x3fb0aca960000000	0.06513460725545883
110	0xbfc3537da0000000	-0.15098543465137482
111	0xbf9fc98ac0000000	-0.03104225918650627
112	0x3fb8e7c740000000	0.097286656498909
113	0xbfcd377500000000	-0.22825491428375244
114	0x3fc968ed40000000	0.19851461052894592
115	0x3fbf2e3060000000	0.12179853767156601
116	0xbfb5475260000000	-0.08311953395605087
117	0x3fc56d1ca0000000	0.1673923283815384
118	0xbf8c9737c0000000	-0.013960300013422966
119	0x3fa6cc1900000000	0.04452589154243469
120	0x3f71f3c9c0000000	0.0043828850612044334
121	0x3f8fb1a100000000	0.015475519001483917
122	0xbfc2d232e0000000	-0.1470397561788559
123	0xbfaa6656e0000000	-0.05156203731894493
124	0x3f9a1b98c0000000	0.025495897978544235
125	0x3fa520b700000000	0.04126521944999695
126	0x3fb143a080000000	0.06743815541267395
127	0x3fb0a50a60000000	0.06501831859350204
128	0xbfc1557e00000000	-0.1354215145111084
129	0x3fbb9b4080000000	0.10783770680427551
130	0x3fa0eafac0000000	0.033042751252651215
131	0xbfa210bde0000000	-0.035283979028463364
132	0xbf961a3560000000	-0.02158435247838497
133	0xbfb1052420000000	-0.06648469716310501
134	0xbfa6024000000000	-0.04298591613769531
135	0xbfc26ce320000000	-0.14394797384738922
136	0x3fc63618e0000000	0.17352591454982758
137	0xbfb41887c0000000	-0.07849930226802826
138	0x3fcd9e85a0000000	0.23140020668506622
139	0xbf913b6260000000	-0.01682809554040432
140	0xbfc765c660000000	-0.18279342353343964
141	0xbfc34159c0000000	-0.15043184161186218
142	0xbf8b0593a0000000	-0.013194230385124683
143	0x3fb84cdea0000000	0.09492293745279312
144	0xbfbed459e0000000	-0.12042772024869919
145	0xbfc403de00000000	-0.15636801719665527
146	0xbfae54d2c0000000	-0.05924089998006821
147	0xbfa623dca0000000	-0.043242353945970535
148	0x3fa3461ba0000000	0.03764425590634346
149	0xbf81045120000000	-0.008309015072882175
150	0x3fa9e68aa0000000	0.050587017089128494
151	0xbf96bfae40000000	-0.022215578705072403
152	0xbfc0b3ef60000000	-0.13049118220806122
153	0xbfdbf65380000000	-0.436909556388855
154	0xbfbd2e7d40000000	-0.11399061977863312
155	0xbfb352e640000000	-0.07548369467258453
156	0x3f7d3ead00000000	0.007139850407838821
157	0xbfb7205ea0000000	-0.09033767133951187
158	0x3f979ee760000000	0.023067107424139977
159	0x3fb6a821e0000000	0.08850299566984177
160	0xbfcf3e4dc0000000	-0.24408885836601257
161	0xbfa582ec40000000	-0.04201448708772659
162	0xbf96104380000000	-0.021546415984630585
163	0x3fc17beae0000000	0.13659416139125824
164	0x3f8fee27e0000000	0.015590964816510677
165	0xbf94a9f440000000	-0.020179573446512222
166	0x3fcac0fd60000000	0.20901457965373993
167	0x3f856a3e20000000	0.010456548072397709
168	0xbfc44c6cc0000000	-0.15858229994773865
169	0xbfb152cbe0000000	-0.06766962260007858
170	0xbf54c65400000000	-0.001267988234758377
171	0x3fcdd35a40000000	0.23301246762275696
172	0x3fc2ee4bc0000000	0.14789721369743347
173	0xbf99308080000000	-0.02459908276796341
174	0x3f72096f00000000	0.0044035278260707855
175	0xbf9b470c00000000	-0.0266382098197937
176	0x3fb3eee540000000	0.07786400616168976
177	0xbfc89fd3e0000000	-0.19237755239009857
178	0x3fae0d4080000000	0.058694854378700256
179	0x3fbdfcc2c0000000	0.11713807284832001
180	0x3fb5824220000000	0.08401883393526077
181	0x3fa7cdf4e0000000	0.04649319872260094
182	0x3fb36228c0000000	0.0757165402173996
183	0xbfbe07af60000000	-0.11730476468801498
184	0x3f6ea87200000000	0.0037424303591251373
185	0x3fb0d1f100000000	0.06570345163345337
186	0xbfc883dea0000000	-0.19152434170246124
187	0xbf9586ab40000000	-0.021021533757448196
188	0x3f68c7ae80000000	0.0030249031260609627
189	0xbfbc58ac00000000	-0.11072802543640137
190	0xbfc4de2980000000	-0.16302984952926636
191	0xbf9cb194a0000000	-0.02802116610109806
192	0x3fcd711800000000	0.23001384735107422
193	0x3fc816e840000000	0.18819907307624817
194	0xbfb738dc20000000	-0.09071136265993118
195	0xbfc2674060000000	-0.14377598464488983
196	0x3fc4b073c0000000	0.1616348922252655
197	0xbfba66bde0000000	-0.10313021391630173
198	0xbf8854b640000000	-0.01188032515347004
199	0x3f9500d340000000	0.0205109603703022
200	0xbfbb2893a0000000	-0.10608790069818497
201	0xbfc48beae0000000	-0.16051994264125824
202	0xbfd4f1a8e0000000	-0.3272497355937958
203	0x3fb95b6640000000	0.09905089437961578
204	0x3fd43339c0000000	0.3156265616416931
205	0x3fb2e2fd20000000	0.07377607375383377
206	0xbfcf71fe20000000	-0.2456662803888321
207	0x3fa4474f40000000	0.039606548845767975
208	0xbfa1bce800000000	-0.034644365310668945
209	0x3f9d265d80000000	0.028466664254665375
210	0x3fbca08840000000	0.11182452738285065
211	0x3fa79ab7e0000000	0.04610228165984154
212	0xbfb89f4200000000	-0.09618008136749268
213	0x3fb9b72180000000	0.10045060515403748
214	0xbfbeb47720000000	-0.11994118243455887
215	0x3fab983c40000000	0.05389583855867386
216	0x3fbfa1fc40000000	0.12356545031070709
217	0x3f77880b00000000	0.005744975060224533
218	0xbfbe64c7a0000000	-0.11872527748346329
219	0x3fc5513680000000	0.16654092073440552
220	0xbfb367bf80000000	-0.07580181956291199
221	0x3fc1300de0000000	0.13427899777889252
222	0x3fb5e42fa0000000	0.08551309257745743
223	0x3fa6374800000000	0.043390512466430664
224	0xbfa3104380000000	-0.03723345696926117
225	0xbf8c536000000000	-0.013830900192260742
226	0xbfc6d73420000000	-0.17844249308109283
227	0x3f9625fb40000000	0.02162926271557808
228	0x3fc890a8a0000000	0.1919146329164505
229	0xbf8b486980000000	-0.013321708887815475
230	0xbfaa5cc3c0000000	-0.05148898810148239
231	0x3fbeb85f40000000	0.12000079452991486
232	0xbfb28ead20000000	-0.07248956710100174
233	0x3fb21cdfc0000000	0.0707530826330185
234	0x3f929c89e0000000	0.018175272271037102
235	0xbf92a7d080000000	-0.018218286335468292
236	0x3f8849c840000000	0.011859478428959846
237	0xbf9807bea0000000	-0.023467043414711952
238	0xbfc0457f40000000	-0.12712088227272034
239	0xbfb5ad1800000000	-0.08467245101928711
240	0x3fba6a0ea0000000	0.10318080335855484
241	0xbfcffc10e0000000	-0.24987994134426117
242	0x3fcf3a6540000000	0.24396958947181702
243	0x3fc0a21e20000000	0.12994743883609772
244	0xbfb9403040000000	-0.09863568842411041
245	0x3fc6e26880000000	0.17878443002700806
246	0x3fbf05c7e0000000	0.12118195742368698
247	0x3fa75b4280000000	0.04561813175678253
248	0xbf44180400000000	-0.000613214448094368
249	0xbf8532dc20000000	-0.010350913740694523
250	0xbfc36e6d60000000	-0.15180747210979462
251	0xbfad8fe660000000	-0.057738494127988815
252	0x3fb75b5c80000000	0.09123781323432922
253	0x3fa7bb0700000000	0.046348780393600464
254	0x3f9abb9880000000	0.026106245815753937
255	0xbf848c0280000000	-0.010032672435045242
