FlaskServer/Trained_Models/cs/BE/B/model.npz (npz, 10632 bytes, 1 tensors)

arr_0 f8 [18, 128]
000000 00 00 00 20 97 2e b6 bf 00 00 00 40 fb 08 af 3f
       -0.08664841204881668 0.06061539798974991
000010 00 00 00 00 66 b5 9a 3f 00 00 00 40 59 17 6f bf
       0.026082605123519897 -0.0037953131832182407
000020 00 00 00 00 34 67 4e bf 00 00 00 20 aa 0c a3 bf
       -0.0009278301149606705 -0.03720599785447121
000030 00 00 00 00 ee a6 6a 3f 00 00 00 c0 d3 05 ad bf
       0.0032534264028072357 -0.056685082614421844
000040 00 00 00 40 9a ae c6 3f 00 00 00 c0 4c c7 c0 bf
       0.1772034466266632 -0.13108214735984802
000050 00 00 00 20 46 a2 c5 3f 00 00 00 80 b7 a8 9b bf
       0.16901470720767975 -0.02701079100370407
000060 00 00 00 c0 34 c3 c7 bf 00 00 00 60 b3 92 a5 bf
       -0.1856447160243988 -0.04213486239314079
000070 00 00 00 80 70 ab ab bf 00 00 00 60 0b de b7 3f
       -0.054042354226112366 0.09323187917470932
000080 00 00 00 e0 6e 06 c0 bf 00 00 00 a0 5e d1 b8 bf
       -0.12519632279872894 -0.09694472700357437
000090 00 00 00 20 6e 61 b0 bf 00 00 00 80 3e 78 a3 bf
       -0.06398666650056839 -0.03802676498889923
0000a0 00 00 00 e0 df ac bd 3f 00 00 00 a0 07 f8 7c 3f
       0.11591910570859909 0.007072477135807276
0000b0 00 00 00 40 ae fd 97 3f 00 00 00 60 b3 7c b2 3f
       0.023428652435541153 0.07221528142690659
0000c0 00 00 00 20 06 54 b5 bf 00 00 00 a0 49 7a d4 bf
       -0.08331335335969925 -0.31996384263038635
0000d0 00 00 00 40 09 ae be bf 00 00 00 a0 66 7b bb bf
       -0.11984308063983917 -0.10735169798135757
0000e0 00 00 00 20 9e 20 88 bf 00 00 00 40 37 ea 9b bf
       -0.011780963279306889 -0.02726064994931221
0000f0 00 00 00 a0 e3 d1 8e bf 00 00 00 20 dc 73 ab 3f
       -0.015048769302666187 0.05361831560730934
000100 00 00 00 80 ec 0e c0 bf 00 00 00 40 d5 30 ad bf
       -0.12545543909072876 -0.057013191282749176
000110 00 00 00 a0 53 6a 9d bf 00 00 00 e0 d0 c1 b5 3f
       -0.028725916519761086 0.08498864620923996
000120 00 00 00 40 0d 79 88 3f 00 00 00 c0 ef b2 77 3f
       0.011949637904763222 0.005785881541669369
000130 00 00 00 e0 a9 1b c6 3f 00 00 00 c0 5f a4 97 3f
       0.17271922528743744 0.02308797463774681
000140 00 00 00 80 95 1e c0 bf 00 00 00 00 3b 2b 9a bf
       -0.12593334913253784 -0.025555536150932312
000150 00 00 00 80 b0 be 95 3f 00 00 00 e0 64 cf d5 3f
       0.021235235035419464 0.34078332781791687
000160 00 00 00 e0 33 a4 c2 3f 00 00 00 20 ea 1e b9 3f
       0.14563606679439545 0.09812796860933304
000170 00 00 00 20 cb 71 9a bf 00 00 00 00 ab 30 a1 bf
       -0.025824712589383125 -0.033574432134628296
000180 00 00 00 00 87 8f b8 3f 00 00 00 60 ef 34 d0 bf
       0.09594005346298218 -0.25323089957237244
000190 00 00 00 c0 35 aa b3 3f 00 00 00 80 0a b4 b7 3f
       0.07681594789028168 0.09259095788002014
0001a0 00 00 00 40 69 92 c4 3f 00 00 00 e0 90 c3 a9 3f
       0.16071811318397522 0.05032017454504967
0001b0 00 00 00 00 b4 b8 bd 3f 00 00 00 00 0d df c2 bf
       0.11609959602355957 -0.14743196964263916
0001c0 00 00 00 40 bf c5 b1 3f 00 00 00 80 de 87 98 3f
       0.0694236308336258 0.023955799639225006
0001d0 00 00 00 e0 e2 0b c5 bf 00 00 00 80 8a 6f b4 3f
       -0.16442523896694183 0.07982698082923889
0001e0 00 00 00 60 ec 29 9d bf 00 00 00 c0 64 ae b0 bf
       -0.02848023734986782 -0.06516103446483612
0001f0 00 00 00 80 34 ef 6a 3f 00 00 00 80 ad d8 9e bf
       0.0032878899946808815 -0.030123434960842133
000200 00 00 00 e0 28 64 d0 3f 00 00 00 00 87 2a b8 3f
       0.2561132609844208 0.09439891576766968
000210 00 00 00 80 c5 49 bd bf 00 00 00 40 df 27 a8 bf
       -0.11440691351890564 -0.0471791997551918
000220 00 00 00 60 f7 c7 b5 3f 00 00 00 20 36 1d c4 bf
       0.08508249372243881 -0.15714146196842194
000230 00 00 00 80 6a 03 8f bf 00 00 00 80 b2 2b a1 3f
       -0.01514323428273201 0.033536508679389954
000240 00 00 00 20 e1 be bc bf 00 00 00 a0 a1 74 c6 bf
       -0.11228758841753006 -0.17543430626392365
000250 00 00 00 80 69 56 d1 bf 00 00 00 e0 79 a3 9e 3f
       -0.2708991765975952 0.029920486733317375
000260 00 00 00 a0 72 fd da 3f 00 00 00 40 4c a4 c1 3f
       0.4217192232608795 0.13782647252082825
000270 00 00 00 40 30 5c c8 bf 00 00 00 40 a7 3b aa 3f
       -0.19031336903572083 0.05123636871576309
000280 00 00 00 40 16 dc af bf 00 00 00 60 9b 4f a3 bf
       -0.062226004898548126 -0.03771672770380974
000290 00 00 00 60 2f ad c0 3f 00 00 00 c0 bc dd b5 3f
       0.13028518855571747 0.08541469275951385
0002a0 00 00 00 00 3e ab bd bf 00 00 00 e0 ef cd aa 3f
       -0.11589419841766357 0.052352424710989
0002b0 00 00 00 a0 b5 d3 c1 bf 00 00 00 00 c5 b9 a4 3f
       -0.13927336037158966 0.040479809045791626
0002c0 00 00 00 c0 08 56 c2 3f 00 00 00 a0 60 f2 af bf
       0.14325055480003357 -0.06239606812596321
0002d0 00 00 00 80 87 fb b3 bf 00 00 00 40 b6 e9 cb 3f
       -0.07805678248405457 0.21806982159614563
0002e0 00 00 00 60 99 f9 a3 bf 00 00 00 80 1c 27 a5 3f
       -0.03901366516947746 0.0413140207529068
0002f0 00 00 00 60 3c 48 a5 3f 00 00 00 40 5d 0b 88 3f
       0.04156674072146416 0.0117404256016016
000300 00 00 00 e0 7f 0c b7 bf 00 00 00 40 93 09 a4 3f
       -0.09003447741270065 0.03913555294275284
000310 00 00 00 60 a5 3e c1 bf 00 00 00 80 80 9b 90 bf
       -0.13472430408000946 -0.016218192875385284
000320 00 00 00 c0 79 9a c1 3f 00 00 00 20 9b 98 b6 bf
       0.1375267207622528 -0.08826608210802078
000330 00 00 00 c0 99 cc 94 bf 00 00 00 80 d5 cc a2 3f
       -0.020311739295721054 0.03671900928020477
000340 00 00 00 80 12 95 c8 bf 00 00 00 80 63 5b b1 3f
       -0.1920493245124817 0.06780073046684265
000350 00 00 00 80 8e 6f 84 bf 00 00 00 00 a1 6f 82 bf
       -0.00997840240597725 -0.009001977741718292
000360 00 00 00 80 95 77 a1 3f 00 00 00 20 99 1e 8a 3f
       0.03411547839641571 0.012753673829138279
000370 00 00 00 e0 ac fc cd bf 00 00 00 e0 42 ca a5 bf
       -0.2342735379934311 -0.04255875572562218
000380 00 00 00 80 56 a8 c6 3f 00 00 00 40 7a 32 cc bf
       0.17701226472854614 -0.22029045224189758
000390 00 00 00 00 6b 36 c0 3f 00 00 00 00 2e 51 c3 3f
       0.12666070461273193 0.15091490745544434
0003a0 00 00 00 60 eb 80 a0 bf 00 00 00 00 e4 b8 c4 3f
       -0.032233577221632004 0.16189241409301758
0003b0 00 00 00 80 fb fc b9 3f 00 00 00 c0 a7 47 b3 3f
       0.10151645541191101 0.07531212270259857
0003c0 00 00 00 c0 63 18 72 bf 00 00 00 20 1c c9 92 bf
       -0.004417791031301022 -0.018345298245549202
0003d0 00 00 00 80 58 ff c1 bf 00 00 00 60 49 94 9a bf
       -0.14060503244400024 -0.0259562935680151
0003e0 00 00 00 e0 2d b1 bb 3f 00 00 00 80 5d cd 8f 3f
       0.10817229002714157 0.015528421849012375
0003f0 00 00 00 c0 1f 09 b3 3f 00 00 00 80 5e bb 8e 3f
       0.07435797154903412 0.015005815774202347
000400 00 00 00 40 1f 62 ac bf 00 00 00 c0 ad b6 b2 3f
       -0.055436111986637115 0.07309995591640472
000410 00 00 00 80 2b 3b ac 3f 00 00 00 e0 47 a2 b4 bf
       0.055138930678367615 -0.08060120791196823
000420 00 00 00 00 4f 66 b0 bf 00 00 00 a0 9a ea 89 bf
       -0.06406110525131226 -0.012654502876102924
000430 00 00 00 a0 3c b0 ac bf 00 00 00 00 55 1a a7 bf
       -0.056032080203294754 -0.045122772455215454
000440 00 00 00 c0 69 a7 bd 3f 00 00 00 00 04 33 b7 bf
       0.1158357709646225 -0.0906221866607666
000450 00 00 00 a0 84 15 c3 3f 00 00 00 80 d4 9a b1 bf
       0.14909417927265167 -0.06876876950263977
000460 00 00 00 e0 7d 1a cc bf 00 00 00 20 ab ad bb bf
       -0.2195584625005722 -0.10811872035264969
000470 00 00 00 c0 8e 5b 7e 3f 00 00 00 40 39 02 b8 3f
       0.007411534897983074 0.09378392994403839
000480 00 00 00 c0 c8 9a b7 bf 00 00 00 40 49 77 ba bf
       -0.09220556914806366 -0.1033826619386673
000490 00 00 00 c0 ec dc a9 bf 00 00 00 40 ec 74 86 bf
       -0.05051364749670029 -0.010965200141072273
0004a0 00 00 00 20 37 56 ab 3f 00 00 00 e0 12 3e 98 3f
       0.05339214578270912 0.023674292489886284
0004b0 00 00 00 00 e6 9b 9c 3f 00 00 00 40 ea 89 a0 3f
       0.02793845534324646 0.03230220824480057
0004c0 00 00 00 60 ff 55 ba bf 00 00 00 80 94 90 dd bf
       -0.10287471860647202 -0.4619494676589966
0004d0 00 00 00 00 ef 62 b4 bf 00 00 00 00 37 99 c1 bf
       -0.07963460683822632 -0.1374882459640503
0004e0 00 00 00 c0 6a 4b 92 bf 00 00 00 20 1f e9 b6 bf
       -0.017865817993879318 -0.08949465304613113
0004f0 00 00 00 20 b4 5a b0 bf 00 00 00 e0 50 2f ae 3f
       -0.06388402730226517 0.058954741805791855
000500 00 00 00 20 39 cc ba bf 00 00 00 00 fc a7 6c bf
       -0.1046786978840828 -0.003498069941997528
000510 00 00 00 00 3f 95 6c bf 00 00 00 00 7d 16 c0 3f
       -0.003489134833216667 0.12568628787994385
000520 00 00 00 20 b3 fc 6a bf 00 00 00 e0 e3 5c b0 bf
       -0.0032943247351795435 -0.06391739100217819
000530 00 00 00 60 ab d9 c3 3f 00 00 00 40 b4 bc 9f 3f
       0.15508024394512177 0.03099328652024269
000540 00 00 00 40 8e 84 c6 bf 00 00 00 80 fe e8 95 bf
       -0.1759202778339386 -0.021396614611148834
000550 00 00 00 c0 84 70 98 3f 00 00 00 e0 8a d1 d0 3f
       0.023866724222898483 0.26278945803642273
000560 00 00 00 00 08 10 c7 3f 00 00 00 00 69 c1 b4 3f
       0.1801767349243164 0.08107620477676392
000570 00 00 00 80 2a 12 b4 3f 00 00 00 40 e5 5f a3 bf
       0.07840219140052795 -0.03784099966287613
000580 00 00 00 40 b9 29 c2 3f 00 00 00 c0 3d 22 ca bf
       0.14189830422401428 -0.20416995882987976
000590 00 00 00 c0 49 86 c0 3f 00 00 00 20 38 7e b8 3f
       0.12909814715385437 0.09567595273256302
0005a0 00 00 00 60 be 49 b7 3f 00 00 00 40 fc 1f a6 3f
       0.09096898883581161 0.043212778866291046
0005b0 00 00 00 e0 a3 97 ba 3f 00 00 00 c0 9a 79 c0 bf
       0.10387634485960007 -0.12871107459068298
0005c0 00 00 00 e0 76 50 a0 3f 00 00 00 a0 97 dd ae 3f
       0.03186389431357384 0.060284364968538284
0005d0 00 00 00 a0 2c ec c6 bf 00 00 00 60 cc 1b a7 3f
       -0.1790824681520462 0.045133959501981735
0005e0 00 00 00 40 0e 99 9a 3f 00 00 00 c0 0f a5 ad bf
       0.025974486023187637 -0.057899944484233856
0005f0 00 00 00 60 82 0b a7 bf 00 00 00 a0 db c7 a1 bf
       -0.045009683817625046 -0.03472791984677315
000600 00 00 00 40 88 6f d1 3f 00 00 00 80 33 a7 b6 3f
       0.2724323868751526 0.08848878741264343
000610 00 00 00 20 56 8e c0 bf 00 00 00 40 f0 6c af bf
       -0.12934376299381256 -0.061378009617328644
000620 00 00 00 80 96 95 b7 3f 00 00 00 00 b8 c6 c6 bf
       0.0921262800693512 -0.17793941497802734
000630 00 00 00 a0 e6 7b aa bf 00 00 00 60 a4 6f 9c bf
       -0.05172653868794441 -0.027769630774855614
000640 00 00 00 00 70 6b c3 bf 00 00 00 60 d8 c6 c0 bf
       -0.1517162322998047 -0.13106827437877655
000650 00 00 00 a0 50 e4 d2 bf 00 00 00 60 fa 41 b4 3f
       -0.29518523812294006 0.07913174480199814
000660 00 00 00 a0 b8 99 d5 3f 00 00 00 20 ed b2 c5 3f
       0.3375073969364166 0.16952289640903473
000670 00 00 00 40 75 4b c8 bf 00 00 00 40 9e 71 9f 3f
       -0.18980279564857483 0.03070685639977455
000680 00 00 00 20 01 32 b3 bf 00 00 00 40 69 cd 89 bf
       -0.07498175650835037 -0.012598821893334389
000690 00 00 00 c0 bd 39 bb 3f 00 00 00 c0 d7 8a bf 3f
       0.10634981095790863 0.12321232259273529
0006a0 00 00 00 c0 0e 4b b6 bf 00 00 00 40 8e 38 a6 3f
       -0.08708278834819794 0.04340023547410965
0006b0 00 00 00 20 c8 6d b8 bf 00 00 00 40 f6 98 9b 3f
       -0.09542513638734818 0.026950690895318985
0006c0 00 00 00 e0 c0 7a c8 3f 00 00 00 80 6c f1 a7 bf
       0.1912461370229721 -0.046763792634010315
0006d0 00 00 00 00 11 ba a2 bf 00 00 00 60 4c c0 ca 3f
       -0.03657582402229309 0.20899347960948944
0006e0 00 00 00 80 5f f6 9b bf 00 00 00 60 9e 0a b7 3f
       -0.027307026088237762 0.0900057777762413
0006f0 00 00 00 40 7f 4c 73 bf 00 00 00 60 5f 8a 97 bf
       -0.004711625166237354 -0.022988786920905113
000700 00 00 00 e0 7d 88 bb bf 00 00 00 c0 a2 d8 71 bf
       -0.1075514480471611 -0.004356990568339825
000710 00 00 00 40 22 1a b5 bf 00 00 00 a0 46 98 93 bf
       -0.08243001997470856 -0.019135573878884315
000720 00 00 00 00 32 27 c0 3f 00 00 00 20 a3 33 b3 bf
       0.12619614601135254 -0.07500667124986649
000730 00 00 00 e0 0d 27 94 bf 00 00 00 20 ef 1f bd 3f
       -0.01968022994697094 0.11376852542161942
000740 00 00 00 00 4d 0b d0 bf 00 00 00 00 67 1d bb 3f
       -0.2506897449493408 0.10591739416122437
000750 00 00 00 40 67 34 98 bf 00 00 00 00 09 30 90 bf
       -0.023637402802705765 -0.015808239579200745
000760 00 00 00 80 fe 77 b2 3f 00 00 00 40 5a dd 87 bf
       0.07214346528053284 -0.011652665212750435
000770 00 00 00 40 42 b7 c0 bf 00 00 00 60 16 ba b5 bf
       -0.13059261441230774 -0.08487071841955185
000780 00 00 00 80 c2 38 c2 3f 00 00 00 40 fc c4 cb bf
       0.14235717058181763 -0.21694901585578918
000790 00 00 00 a0 ad fb bf 3f 00 00 00 20 8e d6 c8 3f
       0.12493405491113663 0.1940477043390274
0007a0 00 00 00 c0 85 b4 b7 3f 00 00 00 e0 4a 7d c4 3f
       0.09259830415248871 0.16007362306118011
0007b0 00 00 00 60 ce 74 be 3f 00 00 00 a0 9c 90 9e 3f
       0.11896982043981552 0.029848525300621986
0007c0 00 00 00 40 97 14 a7 3f 00 00 00 00 bf c1 a3 bf
       0.04507897049188614 -0.0385875403881073
0007d0 00 00 00 e0 6b e1 c6 bf 00 00 00 80 5e 3b 98 bf
       -0.1787543147802353 -0.023663975298404694
0007e0 00 00 00 60 2a ee bb 3f 00 00 00 e0 94 6d ab 3f
       0.10910286754369736 0.05357041582465172
0007f0 00 00 00 c0 00 97 9f 3f 00 00 00 60 a7 44 a1 3f
       0.03084946796298027 0.03372691199183464
